…
plit} &12 * (12 * 768 * 768 + 4 * 768) + 21128 * 768 \\\\ = &12*(7077888+3072)+16226304 \\\\ = &101197824 \\\\ = &101M \\end{split} \u4e5f\u5c31\u662f\u8bf4\u5927\u6982 101M \u7684\u53c2\u6570\u91cf\uff0c\u76f8\u6bd4\u4e8e\u5b98\u65b9\u6240\u8bf4\u7684 110M\uff0c\u8fd9\u5176\u4e2d\u7684\u5dee\u8ddd\u4e3b\u8981\u5305\u62ec\u6700\u540e\u7684\u5206\u7c7b\u5668\u5c42\uff0c\u4ee5\u53ca\u4e0a\u8ff0\u8ba1\u7b97\u8fc7\u7a0b\u4e2d\u90fd\u6ca1\u6709\u8003\u8651\u504f\u7f6e\u9879\uff08bias\uff09\u3002 BERT\u7ed3\u6784\u5982\u4e0b\u6240\u793a\uff1a BertModel( (embeddings): BertEmbeddings( (word_embeddings): Embedding(21128, 768, padding_idx=0) (position_embeddings): Embedding(512, 768) (token_type_embeddings): Embedding(2, 768) (LayerNorm): LayerNorm((768,), eps=1e-12, elementwise_affine=True) (dropout): Dropout(p=0.1, inplace=False) ) (encoder): BertEncoder( (layer): ModuleList( (0-11): 12 x BertLayer( (attention): BertAttention( (self): BertSelfAttention( (query): Linear(in_features=768, out_features=768, bias=True) (key): Linear(in_features=768, out_features=768, bias=True) (value): Linear(in_features=768, out_features=768, bias=True) (dropout): Dropout(p=0.1, inplace=False) ) (output): BertSelfOutput( (dense): Linear(in_features=768, out_features=768, bias=True) (LayerNorm): LayerNorm((768,), eps=1e-12, elementwise_affine=True) (dropout): Dropout(p=0.1, inplace=False) ) ) (intermediate): BertIntermediate( (dense): Linear(in_features=768, out_features=3072, bias=True) (intermediate_act_fn): GELUActivation() ) (output): BertOutput( (dense): Linear(in_features=3072, out_features=768, bias=True) (LayerNorm): LayerNorm((768,), eps=1e-12, elementwise_affine=True) (dropout): Dropout(p=0.1, inplace=False) ) ) ) ) (pooler): BertPooler( (dense): Linear(in_features=768, out_features=768, bias=True) (activation): Tanh() ) ) 2\u3001LLAMA-65B \u53c2\u6570\u91cf # 2.1 LLAMA-65B \u53c2\u6570\u91cf # LLAMA \u4e2d\u4f1a\u4f7f\u7528 SWiGLU \u7ed3\u6784\uff0c\u589e\u52a0\u4e00\u4e2a\u65b0\u7684\u7b26\u53f7\uff1a h_{\\text{swi}} h_{\\text{swi}} \uff1a\u8868\u793a SWiGLU \u4e2d\u9690\u85cf\u5c42\u7684\u7ef4\u5ea6\uff1b embedding \u5c42 \uff1a\u53c2\u6570\u9
…
4c\u6539\u5199\u3002\", \"history\": [] } \u62fc\u88c5\u4e4b\u540e\u9001\u5165\u6a21\u578b\u7684\u5b57\u7b26\u4e32\u5982\u4e0b\uff1a <|im_start|>system You are a helpful assistant.<|im_end|> <|im_start|>user \u8bf7\u5bf9\u7528\u6237\u8f93\u5165\u7684\u95ee\u9898\u8fdb\u884c\u6539\u5199\u3002 \u4e30\u7530\u6c49\u5170\u8fbe\u548c\u5c0f\u9e4fG9\u54ea\u6b3e\u8f66\u578b\u5927<|im_end|> <|im_start|>assistant \u4e30\u7530\u6c49\u5170\u8fbe\u548c\u5c0f\u9e4fG9\u54ea\u6b3e\u8f66\u578b\u7a7a\u95f4\u66f4\u5927\uff1f<|im_end|> \u6a21\u578b\u7ed3\u6784 # Qwen2ForCausalLM( (model): Qwen2Model( (embed_tokens): Embedding(152064, 5120) (layers): ModuleList( (0-39): 40 x Qwen2DecoderLayer( (self_attn): Qwen2SdpaAttention( (q_proj): Linear(in_features=5120, out_features=5120, bias=True) (k_proj): Linear(in_features=5120, out_features=5120, bias=True) (v_proj): Linear(in_features=5120, out_features=5120, bias=True) (o_proj): Linear(in_features=5120, out_features=5120, bias=False) (rotary_emb): Qwen2RotaryEmbedding() ) (mlp): Qwen2MLP( (gate_proj): Linear(in_features=5120, out_features=13696, bias=False) (up_proj): Linear(in_features=5120, out_features=13696, bias=False) (down_proj): Linear(in_features=13696, out_features=5120, bias=False) (act_fn): SiLU() ) (input_layernorm): Qwen2RMSNorm() (post_attention_layernorm): Qwen2RMSNorm() ) ) (norm): Qwen2RMSNorm() ) (lm_head): Linear(in_features=5120, out_features=152064, bias=False) )","title":"Qwen\u6a21\u578b"},{"location":"004_LLM%E5%B7%A5%E7%A8%8B/011_LLaMAFactory/002_%E4%BD%BF%E7%94%A8%E6%95%99%E7%A8%8B/qwen%E6%A8%A1%E5%9E%8B/#qwen","text":"","title":"Qwen\u6a21\u578b"},{"location":"004_LLM%E5%B7%A5%E7%A8%8B/011_LLaMAFactory/002_%E4%BD%BF%E7%94%A8%E6%95%99%E7%A8%8B/qwen%E6%A8%A1%E5%9E%8B/#template","text":"\u6784\u9020\u
…
tart|>system You are a helpful assistant.<|im_end|> <|im_start|>user \u8bf7\u5bf9\u7528\u6237\u8f93\u5165\u7684\u95ee\u9898\u8fdb\u884c\u6539\u5199\u3002 \u4e30\u7530\u6c49\u5170\u8fbe\u548c\u5c0f\u9e4fG9\u54ea\u6b3e\u8f66\u578b\u5927<|im_end|> <|im_start|>assistant \u4e30\u7530\u6c49\u5170\u8fbe\u548c\u5c0f\u9e4fG9\u54ea\u6b3e\u8f66\u578b\u7a7a\u95f4\u66f4\u5927\uff1f<|im_end|>","title":"template\u90e8\u5206"},{"location":"004_LLM%E5%B7%A5%E7%A8%8B/011_LLaMAFactory/002_%E4%BD%BF%E7%94%A8%E6%95%99%E7%A8%8B/qwen%E6%A8%A1%E5%9E%8B/#_1","text":"Qwen2ForCausalLM( (model): Qwen2Model( (embed_tokens): Embedding(152064, 5120) (layers): ModuleList( (0-39): 40 x Qwen2DecoderLayer( (self_attn): Qwen2SdpaAttention( (q_proj): Linear(in_features=5120, out_features=5120, bias=True) (k_proj): Linear(in_features=5120, out_features=5120, bias=True) (v_proj): Linear(in_features=5120, out_features=5120, bias=True) (o_proj): Linear(in_features=5120, out_features=5120, bias=False) (rotary_emb): Qwen2RotaryEmbedding() ) (mlp): Qwen2MLP( (gate_proj): Linear(in_features=5120, out_features=13696, bias=False) (up_proj): Linear(in_features=5120, out_features=13696, bias=False) (down_proj): Linear(in_features=13696, out_features=5120, bias=False) (act_fn): SiLU() ) (input_layernorm): Qwen2RMSNorm() (post_attention_layernorm): Qwen2RMSNorm() ) ) (norm): Qwen2RMSNorm() ) (lm_head): Linear(in_features=5120, out_features=152064, bias=False) )","title":"\u6a21\u578b\u7ed3\u6784"},{"location":"004_LLM%E5%B7%A5%E7%A8%8B/011_LLaMAFactory/002_%E4%BD%BF%E7%94%A8%E6%95%99%E7%A8%8B/%E5%90%AF%E5%8A%A8%E5%91%BD%E4%BB%A4%E8%AE%B0%E5%BD%95/","text":"[ \u9690\u85cf\u5de6\u4fa7\u76ee\u5f55\u680f ][ \u663e\u793a\u5de6\u4fa7\u76ee\u5f55\u680f ] \u5355\u5361\u8bad\u7ec3 # PYTHONPATH=. CUDA_VISIBLE_DE
…
